…
X_train max: 20.43071053946282
train size:
torch.Size([10500, 26])
test size:
torch.Size([3150, 26])
val size:
torch.Size([1350, 26])
[0.  0.5]
Max y_train_clf: 1
Min y_train_clf: -1
train size:
torch.Size([10500, 26])
test size:
torch.Size([3150, 26])
val size:
torch.Size([1350, 26])
Class Label Distribution:
Class -1: 6981 samples
Class 0: 389 samples
Class 1: 3130 samples
======================================================================
Iteration 0/1  Seed 1  (dataset: pol, 0/1):  Num Sample: 10500 
======================================================================
DTSemNet(
  (linear1): Sequential(
    (0): Linear(in_features=26, out_features=31, bias=True)
  )
  (bn): BatchNorm1d(31, eps=1e-05, momentum=0.1, affine=True, 
track_running_stats=True)
  (reluP): ReLU()
  (reluM): ReLU()
  (linear2): Linear(in_features=62, out_features=32, bias=False)
  (softmax): Softmax(dim=-1)
  (mpool): MaxPoolLayer()
  (experts): ModuleList(
    (0): Expert(
      (layer): Linear(in_features=26, out_features=1, bias=True)
    )
    (1): Expert(
      (layer): Linear(in_features=26, out_features=1, bias=True)
    )
    (2): Expert(
      (layer): Linear(in_features=26, out_features=1, bias=True)
    )
    (3): Expert(
      (layer): Linear(in_features=26, out_features=1, bias=True)
    )
    (4): Expert(
      (layer): Linear(in_features=26, out_features=1, bias=True)
    )
    (5): Expert(
      (layer): Linear(in_features=26, out_features=1, bias=True)
    )
    (6): Expert(
      (layer): Linear(in_features=26, out_features=1, bias=True)
    )
    (7): Expert(
      (layer): Linear(in_features=26, out_features=1, bias=True)
    )
    (8): Expert(
      (layer): Linear(in_features=26, out_features=1, bias=True)
    )
    (9): Expert(
      (layer): Linear(in_features=26, out_features=1, bias=True)
    )
    (10): Expert(
      (layer): Linear(in_features=26, out_features=1, bias=True)
    )
    (11): Expert(
      (layer): Linear(in_features=26, out_features=1, bias=True)
    )
    (12): Expert(
      (layer): Linear(in_features=26, out_features=1, bias=True)
    )
    (13): Expert(
      (layer): Linear(in_features=26, out_features=1, bias=True)
    )
    (14): Expert(
      (layer): Linear(in_features=26, out_features=1, bias=True)
    )
    (15): Expert(
      (layer): Linear(in_features=26, out_features=1, bias=True)
    )
    (16): Expert(
      (layer): Linear(in_features=26, out_features=1, bias=True)
    )
    (17): Expert(
      (layer): Linear(in_features=26, out_features=1, bias=True)
    )
    (18): Expert(
      (layer): Linear(in_features=26, out_features=1, bias=True)
    )
    (19): Expert(
      (layer): Linear(in_features=26, out_features=1, bias=True)
    )
    (20): Expert(
      (layer): Linear(in_features=26, out_features=1, bias=True)
    )
    (21): Expert(
      (layer): Linear(in_features=26, out_features=1, bias=True)
    )
    (22): Expert(
      (layer): Linear(in_features=26, out_features=1, bias=True)
    )
    (23): Expert(
      (layer): Linear(in_features=26, out_features=1, bias=True)
    )
    (24): Expert(
      (layer): Linear(in_features=26, out_features=1, bias=True)
    )
    (25): Expert(
      (layer): Linear(in_features=26, out_features=1, bias=True)
    )
    (26): Expert(
      (layer): Linear(in_features=26, out_features=1, bias=True)
    )
    (27): Expert(
      (layer): Linear(in_features=26, out_features=1, bias=True)
    )
    (28): Expert(
      (layer): Linear(in_features=26, out_features=1, bias=True)
    )
    (29): Expert(
      (layer): Linear(in_features=26, out_features=1, bias=True)
    )
    (30): Expert(
      (layer): Linear(in_features=26, out_features=1, bias=True)
    )
    (31): Expert(
      (layer): Linear(in_features=26, out_features=1, bias=True)
    )
  )
)
Epoch: 0, Leaf Dist: [… Epoch: 1/50, Average Loss: 423.2650, Train Acc: 20.5734 Test Acc: 20.9328
Epoch: 1, Leaf Dist: [… Epoch: 2/50, Average Loss: 341.4020, Train Acc: 18.4771 Test Acc: 18.7111
Epoch: 2, Leaf Dist: [… Epoch: 3/50, Average Loss: 330.2722, Train Acc: 18.1734 Test Acc: 18.5440
Epoch: 4/50, Average Loss: 340.5095, Train Acc: 18.4529 Test Acc: 18.9599
…
