…
[-2.1  -1.14 -0.76 -0.49 -0.13  0.25  0.75  1.4 ]
Max y_train_clf: 7
Min y_train_clf: 0
train size:
torch.Size([34240, 384])
test size:
torch.Size([10700, 384])
val size:
torch.Size([8560, 384])
Class Label Distribution:
Class 0: 4276 samples
Class 1: 4356 samples
Class 2: 4238 samples
Class 3: 4268 samples
Class 4: 4249 samples
Class 5: 4299 samples
Class 6: 4305 samples
Class 7: 4249 samples
======================================================================
Iteration 0/1  Seed 1  (dataset: CT Slice, 0/1):  Num Sample: 34240 
======================================================================
DTSemNet(
  (linear1): Sequential(
    (0): Linear(in_features=384, out_features=31, bias=True)
  )
  (bn): BatchNorm1d(31, eps=1e-05, momentum=0.1, affine=True, 
track_running_stats=True)
  (reluP): ReLU()
  (reluM): ReLU()
  (linear2): Linear(in_features=62, out_features=32, bias=False)
  (softmax): Softmax(dim=-1)
  (mpool): MaxPoolLayer()
  (experts): ModuleList(
    (0): Expert(
      (layer): Linear(in_features=384, out_features=1, bias=True)
    )
    (1): Expert(
      (layer): Linear(in_features=384, out_features=1, bias=True)
    )
    (2): Expert(
      (layer): Linear(in_features=384, out_features=1, bias=True)
    )
    (3): Expert(
      (layer): Linear(in_features=384, out_features=1, bias=True)
    )
    (4): Expert(
      (layer): Linear(in_features=384, out_features=1, bias=True)
    )
    (5): Expert(
      (layer): Linear(in_features=384, out_features=1, bias=True)
    )
    (6): Expert(
      (layer): Linear(in_features=384, out_features=1, bias=True)
    )
    (7): Expert(
      (layer): Linear(in_features=384, out_features=1, bias=True)
    )
    (8): Expert(
      (layer): Linear(in_features=384, out_features=1, bias=True)
    )
    (9): Expert(
      (layer): Linear(in_features=384, out_features=1, bias=True)
    )
    (10): Expert(
      (layer): Linear(in_features=384, out_features=1, bias=True)
    )
    (11): Expert(
      (layer): Linear(in_features=384, out_features=1, bias=True)
    )
    (12): Expert(
      (layer): Linear(in_features=384, out_features=1, bias=True)
    )
    (13): Expert(
      (layer): Linear(in_features=384, out_features=1, bias=True)
    )
    (14): Expert(
      (layer): Linear(in_features=384, out_features=1, bias=True)
    )
    (15): Expert(
      (layer): Linear(in_features=384, out_features=1, bias=True)
    )
    (16): Expert(
      (layer): Linear(in_features=384, out_features=1, bias=True)
    )
    (17): Expert(
      (layer): Linear(in_features=384, out_features=1, bias=True)
    )
    (18): Expert(
      (layer): Linear(in_features=384, out_features=1, bias=True)
    )
    (19): Expert(
      (layer): Linear(in_features=384, out_features=1, bias=True)
    )
    (20): Expert(
      (layer): Linear(in_features=384, out_features=1, bias=True)
    )
    (21): Expert(
      (layer): Linear(in_features=384, out_features=1, bias=True)
    )
    (22): Expert(
      (layer): Linear(in_features=384, out_features=1, bias=True)
    )
    (23): Expert(
      (layer): Linear(in_features=384, out_features=1, bias=True)
    )
    (24): Expert(
      (layer): Linear(in_features=384, out_features=1, bias=True)
    )
    (25): Expert(
      (layer): Linear(in_features=384, out_features=1, bias=True)
    )
    (26): Expert(
      (layer): Linear(in_features=384, out_features=1, bias=True)
    )
    (27): Expert(
      (layer): Linear(in_features=384, out_features=1, bias=True)
    )
    (28): Expert(
      (layer): Linear(in_features=384, out_features=1, bias=True)
    )
    (29): Expert(
      (layer): Linear(in_features=384, out_features=1, bias=True)
    )
    (30): Expert(
      (layer): Linear(in_features=384, out_features=1, bias=True)
    )
    (31): Expert(
      (layer): Linear(in_features=384, out_features=1, bias=True)
    )
  )
)
Epoch: 0, Leaf Dist: [… Epoch: 1/40, Average Loss: 53.0570, Train Acc: 7.2840 Test Acc: 7.5037
Epoch: 1, Leaf Dist: [… Epoch: 2/40, Average Loss: 40.4027, Train Acc: 6.3563 Test Acc: 6.6347
Epoch: 2, Leaf Dist: [… Epoch: 3/40, Average Loss: 28.9724, Train Acc: 5.3826 Test Acc: 5.5064
Epoch: 4/40, Average Loss: 23.9702, Train Acc: 4.8959 Test Acc: 4.9833
…
